results/cora/training/model/autoencoder.pt (torch, 188199 bytes, 2 tensors)

weight f4 [32, 1433]
-0.046489913 -0.024122735 0.021708064 0.072582036 0.029147651 0.098135635 -0.05740462 -0.1751193
0.027305523 -0.019958645 -0.080334716 -0.0012191376 -0.06251802 0.034634713 -0.013390905 0.1276957
-0.060027387 -0.11083702 0.0031198035 0.0067161378 -0.26304343 0.008336898 0.22238235 0.073354065
-0.06601727 -0.0010235722 0.028893758 -0.06855521 -0.13422613 -0.0060215844 -0.080638684 -0.20043351
0.052874938 0.057237856 0.070192516 -0.007774375 -0.071534544 0.16147806 0.04582359 0.034518775
0.007344194 -0.03609554 0.02658832 0.045339867 -0.0193898 -0.049691543 0.021374946 0.030553384
-0.030515393 -0.07413797 0.073280804 0.08409456 -0.009337951 0.015038126 -0.03555706 0.08936839
0.034519553 0.02706234 -0.03409402 0.10957291 -0.21371752 0.04553809 -0.042181473 0.013556004
0.0065772017 -0.009355823 0.00207718 -0.039133128 -0.08934086 -0.013188254 -0.02855791 0.08221364
0.15104105 0.10118336 -0.011768705 0.15641616 0.09900407 0.022552015 0.023421444 0.03288911
0.018883035 -0.038488522 0.043767747 0.08397047 -0.033406015 -0.06505597 0.03450321 0.028904265
-0.07096106 0.025476899 -0.11769028 0.11214658 -0.011462221 0.039874755 0.07781057 0.096601166
-0.03203554 0.09051849 0.0045626694 0.0064882007 0.13272376 -0.066609085 0.07268917 0.0039506266
-0.06305657 0.019130688 -0.027762026 -0.0029109367 0.13419443 0.12079541 0.10567571 0.06576083
0.06922821 0.034182925 -0.036139935 0.043041267 0.3436979 0.014087449 0.061178368 -0.15519437
0.0023303877 0.05492778 0.018004091 0.010257307 0.0074443845 0.0073541966 -0.0390792 -0.08267487
-0.02854009 -0.07593307 -0.022657646 0.004148888 0.017684685 0.0547608 0.047541257 -0.024279624
-0.081563465 -0.10625999 0.024013884 -0.009334108 -0.035976075 0.052603927 0.032328658 0.005085273
0.0397134 0.12499643 -0.04435141 0.14733945 0.004144803 -0.015537319 0.018529 0.09133321
-0.059845123 0.028330682 -0.007872285 0.013004639 -0.03553467 -0.07263457 -0.1494552 0.08358925
-0.13586058 0.041240286 0.01000237 0.60475785 0.267614 0.10814121 0.06361414 -0.002285014
0.025878381 -0.0009940288 -0.25650075 -0.06171944 -0.035001438 -0.06932739 0.08661169 0.030292472
-0.09222685 0.031569734 -0.0427921 -0.009879035 -0.17655556 0.14515097 -0.08014217 0.020184299
0.08317267 -0.063957095 -0.010649768 0.02336469 0.023661008 -0.07834278 -0.08833855 0.05589041
0.036502965 0.03699677 0.0024628986 -0.01609055 0.052742463 0.086954735 -0.16996613 0.054978013
-0.12355554 -0.10459656 -0.035944887 0.03665152 -0.09272175 0.021333558 -0.10380449 0.11505392
0.06817715 0.11698908 0.066611044 0.03190433 0.004355651 -0.026848568 -0.046563517 0.07453782
0.11439109 0.07504469 0.09206414 0.039153032 -0.14637311 0.09119724 0.09727006 -0.15427373
-0.032918405 0.0008459141 0.025120515 0.13608114 -0.004642997 -0.078245334 0.0025911361 -0.058616757
-0.13805947 -0.06906877 0.023863563 0.08488492 0.16775687 0.09665884 -0.020771917 -0.1639438
-0.003262961 -0.0634689 0.11377423 0.07648875 -0.07115552 -0.061122965 -0.029534107 0.017160503
0.04291352 -0.22001491 0.05363051 0.0001737374 0.08715388 -0.0522122 -0.10740019 0.017061245
00000000: 356c 3ebd 0b9d c5bc 1cd5 b13c e4a5 943d
00000010: 0ec7 ee3c 56fb c83d 1b21 6bbd 7952 33be
00000020: d5af df3c 5080 a3bc 8786 a4bd 78cb 9fba
00000030: 7309 80bd 21dd 0d3d 8765 5bbc a9c2 023e
00000040: 47df 75bd 85fe e2bd 9e75 4c3b 0c13 dc3b
00000050: a1ad 86be 7c97 083c 33b8 633e a83a 963d
00000060: 1034 87bd 6229 86ba 9ab2 ec3c ad66 8cbd
00000070: 9372 09be b650 c5bb e525 a5bd 713e 4dbe
00000080: 6493 583d 3e72 6a3d 18c1 8f3d 2fc0 febb
00000090: b480 92bd 815a 253e 84b1 3b3d 8f63 0d3d
000000a0: 91a7 f03b ebd8 13bd c0cf d93c 4cb6 393d
000000b0: 5cd7 9ebc 5c89 4bbd 831a af3c 174b fa3c
000000c0: 6bfb f9bc a6d5 97bd 3f14 963d c539 ac3d
000000d0: 35fe 18bc 7962 763c 48a4 11bd c606 b73d
000000e0: 6064 0d3d d7b1 dd3c 2ca6 0bbd c367 e03d
000000f0: c4d8 5abe 2686 3a3d 7bc6 2cbd 001a 5e3c
00000100: 9185 d73b 2a49 19bc 4c21 083b 0f4a 20bd
00000110: 57f8 b6bd 8c13 58bc 47f2 e9bc a05f a83d
00000120: 81aa 1a3e 3939 cf3d 87d1 40bc 8f2b 203e
00000130: a5c2 ca3d 01bf b83c 54de bf3c bbb6 063d
00000140: 98b0 9a3c 24a6 1dbd cf45 333d b6f8 ab3d
00000150: bfd4 08bd 103c 85bd 3d53 0d3d a3c8 ec3c
00000160: 0854 91bd eeb4 d03c 9a07 f1bd 1bad e53d
00000170: 0acc 3bbc b653 233d 265b 9f3d d5d6 c53d
00000180: b337 03bd c261 b93d 7282 953b f99a d43b
00000190: bde8 073e 586a 88bd 0fde 943d 4274 813b
000001a0: ce23 81bd f6b7 9c3c 306d e3bc 6ac5 3ebb
000001b0: 446a 093e 9563 f73d 826c d83d 9dad 863d
000001c0: 85c7 8d3d 6503 0c3d 7807 14bd 0a4c 303d
000001d0: 2cf9 af3e 0bcf 663c 2b96 7a3d 46eb 1ebe
000001e0: 6bb9 183b f4fb 603d 517d 933c 440e 283c
000001f0: 06f0 f33b 79fb f03b 8311 20bd 7151 a9bd
00000200: e8cc e9bc cc82 9bbd 879c b9bc 65f3 873b
00000210: 79df 903c dc4c 603d 9fba 423d 10e6 c6bc
00000220: bf0a a7bd d69e d9bd c4b8 c43c 16ee 18bc
00000230: a65b 13bd 3777 573d 0e6b 043d 5da2 a63b
00000240: 85aa 223d 21fe ff3d d3a9 35bd 27e0 163e
00000250: 21d1 873b 3d90 7ebc 21ca 973c e80c bb3d
00000260: 2920 75bd bf15 e83c c2fa 00bc 6911 553c
00000270: cd8c 11bd 6fc1 94bd c90a 19be d730 ab3d
00000280: 091f 0bbe 93eb 283d fbe0 233c 69d1 1a3f
00000290: b404 893e 2479 dd3d 2148 823d 2cc0 15bb
000002a0: e6fe d33c 124a 82ba 1154 83be 86cd 7cbd
000002b0: ab5d 0fbd 85fb 8dbd 7861 b13d eb27 f83c
000002c0: 6ee1 bcbd 444f 013d c546 2fbd addb 21bc
000002d0: fbca 34be 75a2 143e 9421 a4bd 8b59 a53c
000002e0: 6f56 aa3d f0fb 82bd 5d7c 2ebc 4e67 bf3c
000002f0: bbd4 c13c 2e72 a0bd d7ea b4bd 58ed 643d
00000300: 2284 153d ed89 173d 9568 213b 54d0 83bc
00000310: 7b08 583d 5315 b23d 9a0b 2ebe a030 613d
00000320: b00a fdbd b936 d6bd f23a 13bd e71f 163d
00000330: e7e4 bdbd b7c3 ae3c 7397 d4bd 64a1 eb3d
00000340: 76a0 8b3d f997 ef3d 5f6b 883d 1dae 023d
00000350: d9b9 8e3b 87f1 dbbc 63b9 3ebd 49a7 983d
00000360: e045 ea3d 08b1 993d 208c bc3d ee5e 203d
00000370: d5e2 15be 9ec5 ba3d 8635 c73d eff9 1dbe
00000380: 73d5 06bd 56c0 5d3a 8ac9 cd3c db58 0b3e
00000390: 4824 98bb 173f a0bd 0dd0 293b 2018 70bd
000003a0: 765f 0dbe ed73 8dbd 857d c33c 25d8 ad3d
000003b0: 75c8 2b3e 12f5 c53d de29 aabc e2e0 27be
000003c0: 67d7 55bb fcfb 81bd 7702 e93d 22a6 9c3d
000003d0: fcb9 91bd 135c 7abd 83f1 f1bc 2f94 8c3c
000003e0: 16c6 2f3d 974b 61be aaab 5b3d 472d 3639
000003f0: bc7d b23d 76dc 55bd a1f4 dbbd 06c4 8b3c

bias f4 [32]
-0.009961216 0.0053008464 0.010565529 -0.00069408806 0.00688791 -0.0015097918 -0.0073349006 -0.0020502522
-0.0047086505 -0.0056674196 0.011140483 0.01023292 0.0010343269 0.009891221 -0.0023259313 0.00010580778
-0.0008662238 -0.0040746983 0.00063517655 0.0066004083 -0.009011571 0.004158398 -0.0040738476 -0.0009622565
0.0018990778 0.001819039 0.006132105 -0.002534912 0.0043287203 0.006466454 -0.0043235603 -0.008053799
00000000: 5e34 23bc b9b2 ad3b 0a1b 2d3c 76f3 35ba
00000010: fab3 e13b 35e4 c5ba 9b59 f0bb 865d 06bb
00000020: 064b 9abb c3b5 b9bb 9386 363c faa7 273c
00000030: 4092 873a ca0e 223c a76e 18bb 1fe5 dd38
00000040: 4c13 63ba 0c85 85bb fa81 263a 3d48 d83b
00000050: 45a5 13bc 2c43 883b e97d 85bb f13f 7cba
00000060: 7aea f83a d26c ee3a d3ef c83b c420 26bb
00000070: f0d7 8d3b 8ce4 d33b a7ac 8dbb 15f4 03bc
